checkpoint.pth (torch_old, 28333 bytes, 6 tensors)

fc1.weight f4 [64, 37]
0.18210784 0.023401082 -0.10065453 -0.10602852 -0.15478158 0.022553356 0.025246806 -0.2709158
-0.13973486 -0.10065921 0.11232014 0.0745613 0.030899778 0.041762672 -0.089314826 -0.07759885
-0.16149667 -0.1403551 0.1148107 0.18765828 -0.04559684 0.008240313 -0.07899609 0.058052767
-0.019237392 -0.10552273 -0.10715415 -0.19936721 0.0622031 -0.021841727 -0.10110777 -0.15129086
0.037528116 0.23882349 0.33200336 0.061742302 0.06719801 -0.06765633 -0.3446817 0.070724405
-0.5094978 -0.21485794 -0.19358419 -0.27812263 -0.46224236 0.1923026 -0.31044284 -0.25218138
0.21378252 -0.41933528 -0.03699667 0.021056697 -0.2750203 -0.18126862 -0.38942763 0.13201612
-0.6152769 -0.26125306 -0.08433087 0.0037619646 -0.3497965 0.28947505 -0.35158536 -0.22386223
0.0031644579 0.01800804 0.0058742207 0.16887945 -0.030549366 -0.6442297 -0.45570603 0.41962975
-0.049521595 -0.03608039 -0.111175954 -0.3271227 0.26940563 -0.17970926 -0.8544962 -0.4420873
-0.42417267 0.39241192 -0.5409973 -1.215069 -0.30572712 0.11607827 -0.0801626 -0.4215951
-0.47781807 -0.009174869 -0.16254757 -0.062015705 -0.34110644 -0.2393654 -0.15079525 -0.41388625
-0.08945414 -0.47619724 -0.71326566 -0.039555773 -0.17107326 0.14070705 -0.3125682 -0.9535289
-0.24172994 -0.23068471 0.10528423 -0.18193513 -0.7639606 -0.18712603 0.09032788 0.16777892
0.15124652 0.22186506 -0.12459619 -0.28706422 -0.033899523 0.07765198 -0.11333711 0.049902875
0.030736102 0.25977647 -0.7456299 -0.31797323 -0.49229252 -1.2536248 0.12097724 0.039693624
0.21596707 -0.13929035 0.000758061 0.13292827 0.07837106 -0.050714497 -0.23254366 -0.022252223
0.22345138 -0.14173979 -0.19766137 0.2373609 0.0820897 -0.034361348 -0.12055063 0.048956737
-0.17816019 0.21961151 -0.0356027 0.004443507 0.07899863 0.047760792 0.067462265 0.08598997
-0.049194206 0.44946852 -0.4904781 -0.67971295 -0.61624587 -1.6573354 0.085739955 0.10575119
0.10612186 0.041644156 -0.04478506 0.09005506 0.09985898 0.12940398 0.0928488 -0.03458665
-0.010346978 0.012418764 -0.047420595 -0.013602106 0.0054941312 0.14886998 0.11483806 0.11708011
0.23762466 0.1302967 0.1846687 0.022076692 0.12240806 0.07662369 -0.103121154 -0.0071208416
0.0062178574 -0.3014213 0.013223849 -0.03761299 0.008896261 -0.012092878 -0.08183208 0.29039007
-0.20366606 -0.4467147 -0.78934157 -0.26417387 0.06516321 0.21721022 0.2601715 -0.07176433
-0.6659147 -0.07999558 0.23129725 0.041213077 -0.059724465 -0.60870576 0.04774936 0.039908964
0.21483867 -0.6765889 -0.8851442 0.27505568 0.06958997 -0.084239185 -0.51912165 -0.02645257
0.22056669 0.033392947 -0.2336188 -0.20592351 0.021711713 -0.041932885 -0.28999585 0.012418631
-0.097854525 -0.11523989 -0.099703364 -0.031503387 0.16835847 0.16598569 -0.037451155 -0.40118656
0.028957095 -0.20865843 -0.13541168 0.2206703 -0.08928017 -0.0030795152 0.008327019 0.054960795
0.10131135 -0.22741026 0.15294012 0.09274063 0.025559189 -0.35186097 -0.33697572 0.063277125
-0.20371015 0.0391327 0.006530566 -0.41588905 -0.20232423 -0.12869136 0.077048786 0.046070848
00000000: 7a7a 3a3e a0b3 bf3c f623 cebd 7b25 d9bd
00000010: 107f 1ebe d1c1 b83c 64d2 ce3c 7ab5 8abe
00000020: a816 0fbe 6a26 cebd 1a08 e63d 98b3 983d
00000030: 8821 fd3c 560f 2b3d b1ea b6bd 25ec 9ebd
00000040: 625f 25be 3fb9 0fbe df21 eb3d 7e29 403e
00000050: c1c3 3abd 6102 073c b4c8 a1bd bdc8 6d3d
00000060: bc97 9dbc 4d1c d8bd a373 dbbd eb26 4cbe
00000070: aec8 7e3d 6ced b2bc 9711 cfbd feeb 1abe
00000080: 15b7 193d 258e 743e 58fc a93e 7fe5 7c3d
00000090: 1c9f 893d 678f 8abd 1f7a b0be f5d7 903d
000000a0: 736e 02bf b803 5cbe ef3a 46be 1766 8ebe
000000b0: 08ab ecbe f9ea 443e 5df2 9ebe eb1d 81be
000000c0: cee9 5a3e 1db3 d6be d289 17bd 187f ac3c
000000d0: 76cf 8cbe 7b9e 39be 0f63 c7be 3c2f 073e
000000e0: c982 1dbf f6c2 85be aab5 acbd 4b8b 763b
000000f0: 8718 b3be 1336 943e ff02 b4be 243c 65be
00000100: cb62 4f3b 9985 933c 897c c03b bcee 2c3e
00000110: aa42 fabc 3dec 24bf 4d52 e9be b6d9 d63e
00000120: 28d7 4abd 08c9 13bd 38b0 e3bd a07c a7be
00000130: 89ef 893e b405 38be 43c0 5abf 4459 e2be
00000140: 292d d9be 37ea c83e cd7e 0abf 6287 9bbf
00000150: 4488 9cbe 72ba ed3d 4a2c a4bd 50db d7be
00000160: 92a4 f4be 3152 16bc df72 26be 2e04 7ebd
00000170: 81a5 aebe 341c 75be 126a 1abe e6e8 d3be
00000180: bb33 b7bd 20d0 f3be 9498 36bf 3c05 22bd
00000190: d42d 2fbe 8215 103e f008 a0be 781a 74bf
000001a0: 0e88 77be 9d38 6cbe 429f d73d 344d 3abe
000001b0: ec92 43bf f79d 3fbe d3fd b83d 3dce 2b3e
000001c0: 5ee0 1a3e 9830 633e 4a2c ffbd 15fa 92be
000001d0: 3ada 0abd 0008 9f3d 491d e8bd f566 4c3d
000001e0: 47ca fb3c 6c01 853e 9ae1 3ebf 63cd a2be
000001f0: c40d fcbe c776 a0bf eac2 f73d c895 223d
00000200: 7926 5d3e 21a2 0ebe 9db8 463a 591e 083e
00000210: 0281 a03d 01ba 4fbd ed1f 6ebe 4b4a b6bc
00000220: 70d0 643e 3c24 11be be67 4abe bc0e 733e
00000230: a51e a83d 7cbe 0cbd 40e3 f6bd dc86 483d
00000240: a06f 36be d7e1 603e 23d4 11bd d79a 913b
00000250: 09ca a13d d2a0 433d a829 8a3d 821b b03d
00000260: dd7f 49bd bd20 e63e f21f fbbe ab01 2ebf
00000270: 4ac2 1dbf 9123 d4bf 6e98 af3d 1494 d83d
00000280: 6b56 d93d 1093 2a3d 8a70 37bd ca6e b83d
00000290: dd82 cc3d 7a82 043e 8327 be3d bbaa 0dbd
000002a0: 5f86 29bc 1278 4b3c 193c 42bd 5edb 5ebc
000002b0: 1d08 b43b 5f71 183e 3830 eb3d b2c7 ef3d
000002c0: e153 733e 806c 053e cb19 3d3e 2eda b43c
000002d0: 14b1 fa3d e2ec 9c3d 2f31 d3bd f355 e9bb
000002e0: 2bbf cb3b e553 9abe d8a8 583c 1410 1abd
000002f0: a0c1 113c 3521 46bc 9497 a7bd 02ae 943e
00000300: d68d 50be cab7 e4be 4a12 4abf cc41 87be
00000310: 4a74 853d 5b6c 5e3e 3335 853e 2df9 92bd
00000320: 6379 2abf b9d4 a3bd 30d9 6c3e 0bcf 283d
00000330: a4a1 74bd 24d4 1bbf d594 433d 9577 233d
00000340: abfe 5b3e ee34 2dbf cf98 62bf 19d4 8c3e
00000350: 3085 8e3d 9885 acbd 28e5 04bf 0fb3 d8bc
00000360: 3cdc 613e 0bc7 083d c439 6fbe 9ddd 52be
00000370: c3dc b13c d1c1 2bbd 567a 94be 8477 4b3c
00000380: f467 c8bd e402 ecbd 4731 ccbd b209 01bd
00000390: 2a66 2c3e 27f8 293e 6266 19bd 5368 cdbe
000003a0: 6e37 ed3c 8eaa 55be 5ca9 0abe 65f7 613e
000003b0: 86d8 b6bd b1d1 49bb 0d6e 083c 921e 613d
000003c0: 537c cf3d 3cde 68be 569c 1c3e cdee bd3d
000003d0: 8161 d13c 1f27 b4be 1588 acbe 7097 813d
000003e0: 6599 50be 9c49 203d 5cfe d53b 69ef d4be
000003f0: 152e 4fbe abc7 03be c1cb 9d3d c9b4 3c3d

fc1.bias f4 [64]
-0.14603189 -0.20107462 -0.08992698 -0.15055904 0.036103148 0.15031572 -0.010572505 0.056423757
-0.09609435 0.12351319 0.010748527 0.21945256 0.062567584 -0.11268885 -0.2320029 -0.17877962
-0.09547548 0.022464233 -0.065957494 -0.09898236 -0.031121109 0.047207106 0.042383973 0.0069088596
-0.021504555 0.112163134 -0.1671165 -0.21372098 -0.019373147 0.097051285 0.012365286 -0.08733739
-0.012887889 -0.05718001 -0.18333808 0.07990979 0.048092995 0.08037681 0.07434629 -0.1378504
-0.11641077 -0.007651667 -0.11350986 0.061142072 0.058209676 -0.07031492 0.054046847 0.21992677
0.17837782 0.05759209 0.3120759 0.018114641 -0.02214513 -0.19265004 0.12906285 0.044345744
-0.074323125 -0.12253514 -0.15082255 -0.04009989 0.060471132 -0.07322703 -0.016935812 -0.06476961
00000000: 6289 15be 81e6 4dbe a32b b8bd 262c 1abe
00000010: e5e0 133d 5dec 193e 4d38 2dbc 991c 673d
00000020: 1dcd c4bd 7cf4 fc3d 971a 303c 2cb8 603e
00000030: 6f23 803d 69c9 e6bd 2b92 6dbe 0112 37be
00000040: a688 c3bd e906 b83c b914 87bd 43b7 cabd
00000050: b2f1 febc 3d5c 413d d19a 2d3d b763 e23b
00000060: 522a b0bc c9b5 e53d 9620 2bbe acd9 5abe
00000070: 6fb4 9ebc d3c2 c63d c597 4a3c f2dd b2bd
00000080: b927 53bc 9635 6abd fabc 3bbe bea7 a33d
00000090: 29fd 443d 999c a43d de42 983d a828 0dbe
000000a0: c568 eebd d6ba fabb dc77 e8bd 1c70 7a3d
000000b0: 456d 6e3d 4501 90bd 3a60 5d3d 7c34 613e
000000c0: ada8 363e afe5 6b3d 6ac8 9f3e 2865 943c
000000d0: b469 b5bc 0d46 45be 0d29 043e e2a3 353d
000000e0: b936 98bd b4f3 fabd 3a71 1abe c83f 24bd
000000f0: 94b0 773d 0ef8 95bd f9bc 8abc eea5 84bd

fc2.weight f4 [64, 64]
-0.05938435 0.33397862 0.19438033 0.0057245325 -0.13297583 0.019261196 0.0970176 0.22920845
0.07542543 0.17638144 0.008804647 0.22426486 -0.15525998 0.035396665 0.005424705 -0.2772994
0.06936467 -0.15700725 0.014650632 -0.19606145 0.20422323 -0.026373884 0.059920747 0.10355465
0.42921537 -0.25929508 -0.10974968 -0.090319045 -0.14499633 0.10379765 -0.6145581 -0.027635243
-0.020989697 -0.06517028 -0.108987905 0.027340695 -0.053490933 0.22397548 -0.057809208 -0.004057439
0.012236947 -0.06975425 0.12645712 0.08130007 -0.0071592494 -0.1508724 -0.14103948 -0.08564883
-0.76547945 -0.08961705 -0.028018815 0.070270166 0.22130933 -0.1985672 -0.18219493 0.104956575
-0.33814 -0.10402409 0.072687715 0.1021288 0.003664124 0.121888354 0.77967423 0.19745974
0.04222983 -0.33049092 -0.13579898 -0.4673523 -0.04018223 -0.38084334 -0.18456513 -0.27874833
-0.9191172 0.13190156 0.27811247 -0.29300776 -0.13410148 -0.09948888 0.027257511 -0.1008549
0.065617815 0.32791847 -0.09487789 -0.22706732 0.06557083 -0.1781001 -0.11426613 -0.07253641
-0.24957374 -0.92898124 -0.32873118 -0.36079377 0.044528052 -0.003843999 -0.072334304 -0.0701687
0.3158505 -0.09076059 -0.0522145 0.22709146 -0.10854995 -0.8388634 -0.3296498 -0.4508872
0.22907673 -0.36921385 0.069399275 -0.21628083 0.15417284 -0.3694744 -0.13980491 -0.022577185
-0.21516518 -0.18358688 0.14649393 -0.1340247 -0.21480396 -0.20087717 0.09583395 0.0803567
-0.1389376 0.18257922 0.3741472 -0.12880504 -0.010040075 -0.011038896 -0.17211561 0.36227867
-0.019540373 -0.04425339 0.10414139 0.04517481 0.41213655 0.20145856 0.038146656 -0.059675965
-0.30174115 0.0016998524 -0.005892 0.03652573 -0.3079176 -0.027460655 0.037848987 0.039764196
0.106016695 -0.19621035 0.10152444 0.32539642 0.008406091 -0.006893295 0.0188042 0.1650275
-0.2586658 0.28068826 -0.001481204 0.04452025 0.17747277 0.2426643 0.33556998 0.04722947
-0.022936674 -0.10271307 0.01089785 -0.038873244 0.2716693 -0.08790952 -0.039310385 0.02898895
-0.10328731 -0.29722184 0.18898757 0.09388865 -0.08704652 -0.15754458 -0.083178826 -0.018656785
0.07976619 -0.20910102 -0.07049868 -0.13274963 0.06914758 -0.12826419 -0.057123106 0.09628843
-0.54410726 -0.09752741 0.07545722 -0.08337514 -0.054816343 0.06426198 0.0930963 0.29880086
-0.5533791 0.093073346 0.021059547 0.08227824 -0.14347298 -0.47232547 -0.5840698 -0.24042639
-0.14545037 -0.07775099 0.055310898 0.03713972 -0.29960197 -0.549907 -0.32994875 -0.5113035
-0.14811791 0.06387754 -0.4805802 0.04072891 0.32224315 -0.34484932 0.33840504 0.15113251
-0.10862277 0.09194706 -0.76706797 -0.10593436 0.19402076 -0.011129663 0.17937365 0.11561144
0.19331788 -0.5431012 -0.043091953 -0.44938463 0.12053661 0.28604573 0.01926011 -0.15098651
-0.031143652 -0.08570806 -0.043214533 -0.00051675737 -0.027348086 -0.16406743 -0.29292625 -0.4261237
0.11743969 -0.29090738 0.026970053 -0.07228118 -0.12408005 -0.24946423 0.3101935 0.15987518
-0.19834524 -0.1303363 0.08425654 0.112472035 -0.043697365 -0.16562474 0.22916487 0.55411583
00000000: 013d 73bd 3fff aa3e a30b 473e dc94 bb3b
00000010: d12a 08be a8c9 9d3c 2ab1 c63d 9fb5 6a3e
00000020: a678 9a3d 569d 343e 5e41 103c b0a5 653e
00000030: 79fc 1ebe 18fc 103d b9c1 b13b 30fa 8dbe
00000040: 100f 8e3d 82c6 20be 3409 703c 55c4 48be
00000050: e51f 513e 0b0e d8bc 756f 753d 7614 d43d
00000060: 1ec2 db3e 53c2 84be 71c4 e0bd 31f9 b8bd
00000070: eb79 14be dd93 d43d ae53 1dbf 4e63 e2bc
00000080: 96f2 abbc ff77 85bd 0d35 dfbd 98f9 df3c
00000090: 4f19 5bbd d459 653e 59c9 6cbd 44f4 84bb
000000a0: 7a7d 483c 51db 8ebd fa7d 013e a780 a63d
000000b0: 2398 eabb 4b7e 1abe a76c 10be a768 afbd
000000c0: 76f6 43bf 2589 b7bd b787 e5bc cee9 8f3d
000000d0: ea9e 623e 3355 4bbe 4f91 3abe 79f3 d63d
000000e0: b020 adbe 950a d5bd 4cdd 943d e728 d13d
000000f0: cd21 703b 9aa0 f93d bb98 473f e332 4a3e
00000100: 30f9 2c3d 1b36 a9be e30e 0bbe cd48 efbe
00000110: 1f96 24bd e6fd c2be a4fe 3cbe 1ab8 8ebe
00000120: 444b 6bbf 3411 073e c264 8e3e 1d05 96be
00000130: e651 09be d3c0 cbbd 254b df3c 048d cebd
00000140: a262 863d eee4 a73e 574f c2bd 5684 68be
00000150: 004a 863d df5f 36be 5c04 eabd f88d 94bd
00000160: 4290 7fbe b7d1 6dbf 744f a8be f6b9 b8be
00000170: 0c63 363d 9aeb 7bbb 0224 94bd 9bb4 8fbd
00000180: 28b7 a13e b0e0 b9bd dfde 55bd aa8a 683e
00000190: 704f debd c0bf 56bf dcc7 a8be b0da e6be
000001a0: 1793 6a3e 9909 bdbe 3521 8e3d b978 5dbe
000001b0: 7cdf 1d3e c02b bdbe 0529 0fbe caf3 b8bc
000001c0: 4354 5cbe 33fe 3bbe 8102 163e c53d 09be
000001d0: 92f5 5bbe bfb2 4dbe 9744 c43d 0e92 a43d
000001e0: a945 0ebe 0cf6 3a3e 3990 bf3e 78e5 03be
000001f0: 207f 24bc 7cdc 34bc 133f 30be 977c b93e
00000200: 2213 a0bc 0b43 35bd 1548 d53d 3909 393d
00000210: 9003 d33e 274b 4e3e ab3f 1c3d c96e 74bd
00000220: d17d 9abe 95cd de3a ae11 c1bb 019c 153d
00000230: 60a7 9dbe 2bf5 e0bc 8a07 1b3d c8df 223d
00000240: 481f d93d 5eeb 48be 0cec cf3d 5c9a a63e
00000250: b3b9 093c 26e1 e1bb 440b 9a3c f8fc 283e
00000260: d86f 84be 5fb6 8f3e f524 c2ba de5a 363d
00000270: 6cbb 353e fe7c 783e d4cf ab3e b073 413d
00000280: b1e5 bbbc 3b5b d2bd e58c 323c 8d39 1fbd
00000290: 3d18 8b3e e809 b4bd ed03 21bd 3c7a ed3c
000002a0: 4c88 d3bd 762d 98be f585 413e b148 c03d
000002b0: 7245 b2bd 5e53 21be a959 aabd 1dd6 98bc
000002c0: 755c a33d 941e 56be 9d61 90bd 85ef 07be
000002d0: 3f9d 8d3d b057 03be ebf9 69bd de32 c53d
000002e0: 9d4a 0bbf 73bc c7bd 5189 9a3d 96c0 aabd
000002f0: 1a87 60bd c99b 833d 46a9 be3d 6dfc 983e
00000300: 41aa 0dbf 3d9d be3d 1285 ac3c 7e81 a83d
00000310: 95ea 12be a5d4 f1be 9985 15bf 5632 76be
00000320: f1f0 14be e93b 9fbd ae8d 623d d21f 183d
00000330: 6e65 99be b5c6 0cbf 0bef a8be c9e4 02bf
00000340: 39ac 17be 3ad2 823d 9c0e f6be 5cd3 263d
00000350: 0efd a43e 1790 b0be 6d43 ad3e 7bc2 1a3e
00000360: 9d75 debd bd4e bc3d 915e 44bf 1df4 d8bd
00000370: 61ad 463e 3159 36bc baad 373e b1c5 ec3d
00000380: 1ff5 453e ae08 0bbf 3081 30bd be15 e6be
00000390: e6db f63d 9674 923e 61c7 9d3c 359c 1abe
000003a0: f920 ffbc b587 afbd b901 31bd 0077 07ba
000003b0: 1809 e0bc 4b01 28be 6efa 95be e32c dabe
000003c0: 3884 f03d d0f1 94be 4df0 dc3c 2808 94bd
000003d0: ae1d febd 8d73 7fbe afd1 9e3e 52b6 233e
000003e0: 041b 4bbe e176 05be b18e ac3d bd57 e63d
000003f0: 02fc 32bd 8899 29be 32aa 6a3e 89da 0d3f

fc2.bias f4 [64]
-0.028941868 -0.036032453 0.2686308 -0.02876712 0.021753507 -0.0886921 0.4143029 0.035304386
-0.051154844 -0.022262732 -0.0481883 -0.08277086 -0.14636561 -0.043956853 0.110003136 -0.111681536
0.056919158 -0.11844835 0.20165123 -0.01764365 0.25639838 -0.21960878 0.19726546 0.0537609
-0.13591668 -0.21241784 -0.05636469 -0.14242706 0.65454143 -0.10117327 0.09357421 -0.20245884
0.6765478 -0.24118757 -0.11959158 0.056096945 0.08672126 0.23779964 0.16410808 -0.0842999
-0.10207846 0.3733642 0.63059235 -0.1400635 0.65808785 0.36765438 -0.14533998 -0.15223409
0.17634562 0.05248183 -0.013674645 0.6536658 0.63528687 -0.07459112 0.104634725 -0.14723511
0.16816641 0.47564638 -0.032855988 -0.31301928 0.5419083 0.07705971 -0.006927756 -0.1428795
00000000: 7f17 edbc c496 13bd fa89 893e 06a9 ebbc
00000010: 6934 b23c 34a4 b5bd 821f d43e 559b 103d
00000020: be87 51bd 5560 b6bc 1861 45bd c583 a9bd
00000030: dee0 15be 1a0c 34bd 5349 e13d 4ab9 e4bd
00000040: 1024 693d 0c95 f2bd a97d 4e3e 6a89 90bc
00000050: a646 833e 20e1 60be f5ff 493e 6434 5c3d
00000060: be2d 0bbe 1084 59be a9de 66bd 66d8 11be
00000070: 0790 273f ee33 cfbd d6a3 bf3d 5f51 4fbe
00000080: 3d32 2d3f e0f9 76be 6eec f4bd e9c5 653d
00000090: ea9a b13d c081 733e f30b 283e 6da5 acbd
000000a0: 830e d1bd 9829 bf3e 806e 213f ce6c 0fbe
000000b0: 7278 283f 323d bc3e 01d4 14be 41e3 1bbe
000000c0: f293 343e 30f7 563d 9e0b 60bc a456 273f
000000d0: 29a2 223f 3bc3 98bd bb4a d63d cdc4 16be
000000e0: d133 2c3e ec87 f33e 0094 06bd 1044 a0be
000000f0: 81ba 0a3f 7bd1 9d3d 3b02 e3bb 014f 12be

fc3.weight f4 [4, 64]
0.5963932 -0.04328615 0.20049326 -0.44593424 -0.35552916 0.35022163 0.12192083 -0.7637228
0.02794911 -0.14561626 -0.62275404 0.102920234 -0.1199652 -0.0770531 0.0226736 0.071970575
0.092589065 -0.48576185 0.022341656 -0.0044807573 0.18757837 -0.07097797 0.04105197 0.3587397
-0.044876013 -0.19573209 -0.46253958 0.12842506 0.26572278 -0.31036654 0.002579677 -0.23547873
0.19134924 -0.37089914 0.7262029 0.118446395 0.06333274 0.09927897 0.07491355 0.22535083
-0.11220113 0.10015502 0.24394861 0.33013672 0.25382262 0.22980331 -0.028339587 -0.14541166
0.15189388 0.38297632 0.022889348 0.2855297 0.24558334 0.24786915 0.2366889 -0.21549045
0.39854896 0.3364935 -0.08537826 -0.27050245 0.22383274 0.17886639 -0.037970185 -0.33434507
0.5218351 -0.0327739 0.13494451 0.05117953 -0.028134363 0.27259067 0.15240234 0.19096017
-0.014407835 0.2876002 0.07446485 0.27682117 -0.5103946 -0.018289326 0.06751093 0.21832119
0.041234013 -0.012131742 0.12598261 0.41595507 0.15170355 -0.2876566 0.077110216 0.26623005
-0.22007531 -0.25353646 0.2467071 0.25456956 0.24327493 -0.13076918 0.083788864 0.09029954
0.20033139 -0.13331212 0.71286947 0.33279333 0.13966303 0.08667802 0.13814028 0.40629584
-0.057731688 0.09907636 0.22523499 -0.37580252 0.2654987 0.1473505 -0.07113524 -0.08257657
0.138549 0.39005938 0.04659715 0.2409825 0.2373646 0.4668405 0.30227247 -0.29591948
0.4417451 0.326066 0.08704397 -0.33763614 0.22491875 0.11886671 -0.04179611 -0.3413307
0.008707585 -0.33097816 0.061686873 -0.4046807 0.3520436 0.46504334 0.23557417 -0.2801543
-0.105216265 0.067473724 0.38242763 0.2646351 0.5060049 0.26418033 0.2886396 0.034561563
0.30438244 0.5353157 0.17674625 -0.46001577 0.19027652 -0.57768303 0.0028231582 0.22416359
-0.14058767 0.078831054 -0.10662113 0.41347533 0.21655008 -0.30363458 0.2078832 -0.15162301
0.23869821 0.03009837 0.19872193 0.50706756 -0.0056056017 0.17521743 0.019039722 0.43321624
-0.11760831 0.15910672 0.15919259 -0.7351371 0.25985473 0.24857645 -0.11466837 0.07854195
-0.09781738 0.18781613 0.10350186 0.15636021 0.24068585 0.31387132 0.43324548 -9.970236e-05
0.17250453 0.27275714 -0.34268668 -0.3791344 0.23263198 0.31266025 0.07991603 -0.10709867
0.15372181 -0.34327248 -0.012899805 -0.5047649 -0.48909846 0.15824984 0.14814165 -0.049540725
-0.046870567 -0.46080452 0.30099544 0.29982418 0.07332542 0.15234461 0.2352949 0.27493048
0.30585584 0.27954835 -0.11194152 0.12787461 0.10260921 -0.3876595 0.19973683 0.30317676
-0.25351995 0.11312587 0.25756258 0.3455323 0.14636922 -0.057341076 0.12581849 -0.2269825
0.19094458 0.11493115 0.60187876 -0.17709689 0.17040165 0.28453365 0.16122618 0.0584148
0.19965933 0.18505748 0.25584343 -0.1148965 0.26099113 0.20599882 -0.084022686 0.056968156
-0.14438684 0.6342167 -0.30561736 0.24589737 0.14497608 0.82182926 0.09763279 -0.3331495
-0.04599208 0.38314924 0.34369364 -0.30369496 0.31476125 0.23096256 0.21059987 -0.42473337
00000000: 3aad 183f d14c 31bd 1b4e 4d3e 7e51 e4be
00000010: eb07 b6be 4050 b33e a1b1 f93d 5683 43bf
00000020: 88f5 e43c 6e1c 15be cf6c 1fbf d8c7 d23d
00000030: 51b0 f5bd 04ce 9dbd fcbd b93c 4f65 933d
00000040: 569f bd3d c7b5 f8be d905 b73c 51d3 92bb
00000050: 8b14 403e e65c 91bd 1c26 283d bbac b73e
00000060: e9cf 37bd fe6d 48be fdd1 ecbe dc81 033e
00000070: d10c 883e 5de8 9ebe cc0f 293b 5621 71be
00000080: 0ef1 433e 7ee6 bdbe 6fe8 393f 0694 f23d
00000090: 98b4 813d c652 cb3d 466c 993d 5ec2 663e
000000a0: b5c9 e5bd 131e cd3d aacd 793e ae07 a93e
000000b0: 0af5 813e 8f51 6b3e 6c28 e8bc cbe6 14be
000000c0: 128a 1b3e 7915 c43e 7182 bb3c f330 923e
000000d0: 337a 7b3e 69d1 7d3e 935e 723e 87a9 5cbe
000000e0: 9c0e cc3e e048 ac3e ccda aebd 4c7f 8abe
000000f0: 6934 653e c028 373e a086 1bbd 472f abbe
00000100: fc96 053f ed3d 06bd e52e 0a3e a0a1 513d
00000110: 097a e6bc 0191 8b3e 5c0f 1c3e 108b 433e
00000120: d70e 6cbc 5540 933e 0781 983d 81bb 8d3e
00000130: 38a9 02bf 7fd3 95bc 2c43 8a3d 978f 5f3e
00000140: ffe4 283d 37c4 46bc 9601 013e 10f8 d43e
00000150: 2d58 1b3e ba47 93be f6eb 9d3d 4e4f 883e
00000160: 6c5b 61be 88cf 81be c9a0 7c3e f156 823e
00000170: 101d 793e 5be8 05be 7f99 ab3d f7ee b83d
00000180: ac23 4d3e f982 08be 9d7e 363f e363 aa3e
00000190: d303 0f3e 3f84 b13d a574 0d3e 0206 d03e
000001a0: 1078 6cbd 8ce8 ca3d 00a4 663e 3069 c0be
000001b0: 72ef 873e 0de3 163e 5aaf 91bd e81d a9bd
000001c0: cadf 0d3e ddb5 c73e a7dc 3e3d 1ec4 763e
000001d0: b50f 733e b805 ef3e 75c3 9a3e c282 97be
000001e0: 6a2c e23e 1ff2 a63e 1c44 b23d a5de acbe
000001f0: 1a51 663e 6470 f33d 6632 2bbd e6c2 aebe
00000200: 42aa 0e3c f875 a9be 60ab 7c3d 4f32 cfbe
00000210: 0f3f b43e 291a ee3e 5b3a 713e 6270 8fbe
00000220: a07b d7bd aa2f 8a3d 8ecd c33e 407e 873e
00000230: 8a89 013f a542 873e 92c8 933e 6d90 0d3d
00000240: 04d8 9b3e 730a 093f f8fc 343e 3087 ebbe
00000250: d9d7 423e 09e3 13bf bc04 393b 248b 653e
00000260: 37f6 0fbe 2d72 a13d 2e5c dabd 0ab3 d33e
00000270: 4ebf 5d3e fe75 9bbe 55df 543e 1043 1bbe
00000280: 4e6d 743e db90 f63c c37d 4b3e 2ecf 013f
00000290: 32af b7bb 336c 333e 31f9 9b3c 85ce dd3e
000002a0: a0dc f0bd dfec 223e 6203 233e f231 3cbf
000002b0: ae0b 853e d38a 7e3e 40d7 eabd 9ada a03d
000002c0: 7b54 c8bd df52 403e c8f8 d33d e41c 203e
000002d0: 5a76 763e beb3 a03e 5ad2 dd3e 4c17 d1b8
000002e0: 07a5 303e d3a6 8b3e a174 afbe e71d c2be
000002f0: 1437 6e3e 0115 a03e 04ab a33d 8c56 dbbd
00000300: 4069 1d3e 69c1 afbe b459 53bc 4638 01bf
00000310: 1d6b fabe 3f0c 223e 72b2 173e 37eb 4abd
00000320: 5afb 3fbd 92ee ebbe 131c 9a3e 8e82 993e
00000330: a32b 963d 3a00 1c3e 25f1 703e b0c3 8c3e
00000340: 2399 9c3e f620 8f3e 9841 e5bd 90f1 023e
00000350: c724 d23d 4e7b c6be d087 4c3e fc39 9b3e
00000360: 5ecd 81be 89ae e73d 3edf 833e 9ce9 b03e
00000370: d0e1 153e 7ade 6abd 90d6 003e 1a6e 68be
00000380: fa86 433e 0661 eb3d ba14 1a3f e358 35be
00000390: c57d 2e3e 65ae 913e 7a18 253e 5b44 6f3d
000003a0: 7f73 4c3e b57f 3d3e e9fd 823e db4e ebbd
000003b0: a1a0 853e 5bf1 523e 1614 acbd 7157 693d
000003c0: 25da 13be 075c 223f e179 9cbe 85cc 7b3e
000003d0: 9c74 143e 6763 523f b3f3 c73d 9292 aabe
000003e0: 3162 3cbd 232c c43e 9df8 af3e e87d 9bbe
000003f0: 6328 a13e 7381 6c3e 7ea7 573e a776 d9be

fc3.bias f4 [4]
0.47500375 0.3844598 0.533311 0.4727846
00000000: b133 f33e ead7 c43e 1287 083f d310 f23e
